…
48636/48636 [==============================] - 25s 511us/sample - loss: 0.3934 - acc: 0.8662 - val_loss: 1.3323 - val_acc: 0.5228
Epoch 49/50
48636/48636 [==============================] - 25s 504us/sample - loss: 0.3939 - acc: 0.8645 - val_loss: 1.3129 - val_acc: 0.5242
Epoch 50/50
48636/48636 [==============================] - 24s 502us/sample - loss: 0.3956 - acc: 0.8644 - val_loss: 1.5126 - val_acc: 0.4689
_________________________________________________________________
Layer (type)                 Output Shape              Param #   
=================================================================
input_23 (InputLayer)        (None, 20, 22, 1)         0         
_________________________________________________________________
conv2d_4 (Conv2D)            (None, 10, 11, 32)        320       
_________________________________________________________________
batch_normalization_v1_6 (Ba (None, 10, 11, 32)        128       
_________________________________________________________________
dropout_22 (Dropout)         (None, 10, 11, 32)        0         
_________________________________________________________________
conv2d_5 (Conv2D)            (None, 5, 6, 32)          9248      
_________________________________________________________________
batch_normalization_v1_7 (Ba (None, 5, 6, 32)          128       
_________________________________________________________________
dropout_23 (Dropout)         (None, 5, 6, 32)          0         
_________________________________________________________________
flatten_19 (Flatten)         (None, 960)               0         
_________________________________________________________________
dropout_24 (Dropout)         (None, 960)               0         
_________________________________________________________________
dense_81 (Dense)             (None, 128)               123008    
_________________________________________________________________
batch_normalization_v1_8 (Ba (None, 128)               512       
_________________________________________________________________
dropout_25 (Dropout)         (None, 128)               0         
_________________________________________________________________
dense_82 (Dense)             (None, 8)                 1032      
=================================================================
Total params: 134,376
Trainable params: 133,992
Non-trainable params: 384
_________________________________________________________________
None
Confusion matrix, without normalization
[[ 526  305  707    0   10  112   96   35]
 [   3 1137  487    0   11    3   89    0]
 [   1    2 1619    0    0    0    0    0]
 [   0    0   89  177    4    0    0    0]
…
