…
32178/32178 [==============================] - 39s 1ms/sample - loss: 0.1630 - acc: 0.9736 - val_loss: 0.1607 - val_acc: 0.9759
Epoch 49/50
32178/32178 [==============================] - 38s 1ms/sample - loss: 0.1654 - acc: 0.9737 - val_loss: 0.1646 - val_acc: 0.9750
Epoch 50/50
32178/32178 [==============================] - 39s 1ms/sample - loss: 0.1647 - acc: 0.9725 - val_loss: 0.1743 - val_acc: 0.9747
_________________________________________________________________
Layer (type)                 Output Shape              Param #   
=================================================================
input_9 (InputLayer)         (None, 25, 40, 1)         0         
_________________________________________________________________
conv2d_16 (Conv2D)           (None, 13, 20, 32)        320       
_________________________________________________________________
batch_normalization_v1_12 (B (None, 13, 20, 32)        128       
_________________________________________________________________
max_pooling2d_5 (MaxPooling2 (None, 6, 10, 32)         0         
_________________________________________________________________
conv2d_17 (Conv2D)           (None, 3, 5, 64)          18496     
_________________________________________________________________
batch_normalization_v1_13 (B (None, 3, 5, 64)          256       
_________________________________________________________________
conv2d_18 (Conv2D)           (None, 2, 3, 128)         73856     
_________________________________________________________________
batch_normalization_v1_14 (B (None, 2, 3, 128)         512       
_________________________________________________________________
max_pooling2d_6 (MaxPooling2 (None, 1, 1, 128)         0         
_________________________________________________________________
flatten_4 (Flatten)          (None, 128)               0         
_________________________________________________________________
dropout_9 (Dropout)          (None, 128)               0         
_________________________________________________________________
dense_7 (Dense)              (None, 1024)              132096    
_________________________________________________________________
dropout_10 (Dropout)         (None, 1024)              0         
_________________________________________________________________
dense_8 (Dense)              (None, 12)                12300     
=================================================================
Total params: 237,964
Trainable params: 237,516
Non-trainable params: 448