…
32178/32178 [==============================] - 6s 195us/sample - loss: 0.0591 - acc: 0.9836 - val_loss: 0.2389 - val_acc: 0.9523
Epoch 49/50
32178/32178 [==============================] - 6s 199us/sample - loss: 0.0833 - acc: 0.9792 - val_loss: 0.1290 - val_acc: 0.9751
Epoch 50/50
32178/32178 [==============================] - 6s 199us/sample - loss: 0.0650 - acc: 0.9831 - val_loss: 0.1793 - val_acc: 0.9683
_________________________________________________________________
Layer (type)                 Output Shape              Param #   
=================================================================
input_3 (InputLayer)         (None, 25, 40)            0         
_________________________________________________________________
flatten_2 (Flatten)          (None, 1000)              0         
_________________________________________________________________
dense_10 (Dense)             (None, 128)               128128    
_________________________________________________________________
dense_11 (Dense)             (None, 256)               33024     
_________________________________________________________________
dense_12 (Dense)             (None, 256)               65792     
_________________________________________________________________
dense_13 (Dense)             (None, 128)               32896     
_________________________________________________________________
dense_14 (Dense)             (None, 12)                1548      
=================================================================
Total params: 261,388
Trainable params: 261,388
Non-trainable params: 0