…
18625/18625 [==============================] - 92s 5ms/sample - loss: 0.1543 - acc: 0.9744 - val_loss: 0.1767 - val_acc: 0.9692
Epoch 49/50
18625/18625 [==============================] - 91s 5ms/sample - loss: 0.1533 - acc: 0.9739 - val_loss: 0.1695 - val_acc: 0.9710
Epoch 50/50
18625/18625 [==============================] - 90s 5ms/sample - loss: 0.1527 - acc: 0.9723 - val_loss: 0.1826 - val_acc: 0.9696
_________________________________________________________________
Layer (type)                 Output Shape              Param #   
=================================================================
input_2 (InputLayer)         (None, 25, 220, 1)        0         
_________________________________________________________________
conv2d_3 (Conv2D)            (None, 13, 110, 32)       320       
_________________________________________________________________
batch_normalization_v1_3 (Ba (None, 13, 110, 32)       128       
_________________________________________________________________
max_pooling2d_2 (MaxPooling2 (None, 6, 55, 32)         0         
_________________________________________________________________
dropout_2 (Dropout)          (None, 6, 55, 32)         0         
_________________________________________________________________
conv2d_4 (Conv2D)            (None, 3, 28, 64)         18496     
_________________________________________________________________
batch_normalization_v1_4 (Ba (None, 3, 28, 64)         256       
_________________________________________________________________
dropout_3 (Dropout)          (None, 3, 28, 64)         0         
_________________________________________________________________
conv2d_5 (Conv2D)            (None, 2, 14, 128)        73856     
_________________________________________________________________
batch_normalization_v1_5 (Ba (None, 2, 14, 128)        512       
_________________________________________________________________
max_pooling2d_3 (MaxPooling2 (None, 1, 7, 128)         0         
_________________________________________________________________
dropout_4 (Dropout)          (None, 1, 7, 128)         0         
_________________________________________________________________
flatten_1 (Flatten)          (None, 896)               0         
_________________________________________________________________
dropout_5 (Dropout)          (None, 896)               0         
_________________________________________________________________
dense_2 (Dense)              (None, 1024)              918528    
_________________________________________________________________
dropout_6 (Dropout)          (None, 1024)              0         
_________________________________________________________________
dense_3 (Dense)              (None, 4)                 4100      
=================================================================
Total params: 1,016,196
Trainable params: 1,015,748
Non-trainable params: 448
_________________________________________________________________
None
Confusion matrix, without normalization
[[ 619    0    1    4]
 [   0 5391  202   19]
 [   0  132 2849    1]
 [  10    8    1 3180]]