…
48636/48636 [==============================] - 12s 243us/sample - loss: 0.2548 - acc: 0.9070 - val_loss: 0.2584 - val_acc: 0.9077
Epoch 49/50
48636/48636 [==============================] - 12s 248us/sample - loss: 0.2721 - acc: 0.9018 - val_loss: 0.2275 - val_acc: 0.9230
Epoch 50/50
48636/48636 [==============================] - 12s 242us/sample - loss: 0.2660 - acc: 0.9035 - val_loss: 0.2467 - val_acc: 0.9139
_________________________________________________________________
Layer (type)                 Output Shape              Param #   
=================================================================
input_30 (InputLayer)        (None, 20, 22, 1)         0         
_________________________________________________________________
conv2d_16 (Conv2D)           (None, 10, 11, 16)        160       
_________________________________________________________________
batch_normalization_v1_23 (B (None, 10, 11, 16)        64        
_________________________________________________________________
dropout_45 (Dropout)         (None, 10, 11, 16)        0         
_________________________________________________________________
flatten_25 (Flatten)         (None, 1760)              0         
_________________________________________________________________
dropout_46 (Dropout)         (None, 1760)              0         
_________________________________________________________________
dense_93 (Dense)             (None, 128)               225408    
_________________________________________________________________
batch_normalization_v1_24 (B (None, 128)               512       
_________________________________________________________________
dropout_47 (Dropout)         (None, 128)               0         
_________________________________________________________________
dense_94 (Dense)             (None, 8)                 1032      
=================================================================
Total params: 227,176
Trainable params: 226,888
Non-trainable params: 288
_________________________________________________________________
None
Confusion matrix, without normalization
[[1483   11   12    0    1   31  119  134]
 [  10 1545    1    0    2    0  151   21]
 [   1    1 1581    8    5    0   26    0]
 [   0    0    5  265    0    0    0    0]
…
