…
20508/20508 [==============================] - 101s 5ms/sample - loss: 0.1593 - acc: 0.9851 - val_loss: 0.1333 - val_acc: 0.9949
Epoch 49/50
20508/20508 [==============================] - 101s 5ms/sample - loss: 0.1496 - acc: 0.9878 - val_loss: 0.1364 - val_acc: 0.9941
Epoch 50/50
20508/20508 [==============================] - 101s 5ms/sample - loss: 0.1549 - acc: 0.9864 - val_loss: 0.1381 - val_acc: 0.9937
_________________________________________________________________
Layer (type)                 Output Shape              Param #   
=================================================================
input_3 (InputLayer)         (None, 25, 220, 1)        0         
_________________________________________________________________
conv2d_6 (Conv2D)            (None, 13, 110, 32)       320       
_________________________________________________________________
batch_normalization_v1_6 (Ba (None, 13, 110, 32)       128       
_________________________________________________________________
max_pooling2d_4 (MaxPooling2 (None, 6, 55, 32)         0         
_________________________________________________________________
dropout_7 (Dropout)          (None, 6, 55, 32)         0         
_________________________________________________________________
conv2d_7 (Conv2D)            (None, 3, 28, 64)         18496     
_________________________________________________________________
batch_normalization_v1_7 (Ba (None, 3, 28, 64)         256       
_________________________________________________________________
dropout_8 (Dropout)          (None, 3, 28, 64)         0         
_________________________________________________________________
conv2d_8 (Conv2D)            (None, 2, 14, 128)        73856     
_________________________________________________________________
batch_normalization_v1_8 (Ba (None, 2, 14, 128)        512       
_________________________________________________________________
max_pooling2d_5 (MaxPooling2 (None, 1, 7, 128)         0         
_________________________________________________________________
dropout_9 (Dropout)          (None, 1, 7, 128)         0         
_________________________________________________________________
flatten_2 (Flatten)          (None, 896)               0         
_________________________________________________________________
dropout_10 (Dropout)         (None, 896)               0         
_________________________________________________________________
dense_4 (Dense)              (None, 1024)              918528    
_________________________________________________________________
dropout_11 (Dropout)         (None, 1024)              0         
_________________________________________________________________
dense_5 (Dense)              (None, 5)                 5125      
=================================================================
Total params: 1,017,221
Trainable params: 1,016,773
Non-trainable params: 448
_________________________________________________________________
None
Confusion matrix, without normalization
[[ 475    0    0    0    0]
 [   0 2440   15    0   24]
 [   0   16 3731    0    2]
 [   5    0    0 2188   15]
 [   0    4    2    3 4753
…
