…
48636/48636 [==============================] - 40s 816us/sample - loss: 0.0075 - acc: 0.9977 - val_loss: 0.0200 - val_acc: 0.9961
Epoch 49/50
48636/48636 [==============================] - 41s 850us/sample - loss: 0.0102 - acc: 0.9974 - val_loss: 0.0190 - val_acc: 0.9964
Epoch 50/50
48636/48636 [==============================] - 41s 848us/sample - loss: 0.0082 - acc: 0.9976 - val_loss: 0.0203 - val_acc: 0.9957
_________________________________________________________________
Layer (type)                 Output Shape              Param #   
=================================================================
input_63 (InputLayer)        (None, 20, 88, 1)         0         
_________________________________________________________________
conv2d_55 (Conv2D)           (None, 10, 44, 16)        160       
_________________________________________________________________
batch_normalization_v1_86 (B (None, 10, 44, 16)        64        
_________________________________________________________________
dropout_144 (Dropout)        (None, 10, 44, 16)        0         
_________________________________________________________________
flatten_57 (Flatten)         (None, 7040)              0         
_________________________________________________________________
dropout_145 (Dropout)        (None, 7040)              0         
_________________________________________________________________
dense_166 (Dense)            (None, 128)               901248    
_________________________________________________________________
dropout_146 (Dropout)        (None, 128)               0         
_________________________________________________________________
dense_167 (Dense)            (None, 8)                 1032      
=================================================================
Total params: 902,504
Trainable params: 902,472
Non-trainable params: 32
_________________________________________________________________
None
Confusion matrix, without normalization
[[1767    0    2    0    2    0    0   20]
 [   6 1724    0    0    0    0    0    0]
 [   0    0 1611    7    0    0    4    0]
 [   0    0    2  268    0    0    0    0]
…
