…
Epoch 49/50
48636/48636 [==============================] - 230s 5ms/sample - loss: 0.0174 - acc: 0.9987 - val_loss: 0.0182 - val_acc: 0.9984
Epoch 50/50
48636/48636 [==============================] - 230s 5ms/sample - loss: 0.0181 - acc: 0.9988 - val_loss: 0.0148 - val_acc: 0.9997
__________________________________________________________________________________________________
Layer (type)                    Output Shape         Param #     Connected to                     
==================================================================================================
input_41 (InputLayer)           (None, 100, 100, 1)  0                                            
__________________________________________________________________________________________________
conv2d_30 (Conv2D)              (None, 50, 50, 32)   320         input_41[0][0]                   
__________________________________________________________________________________________________
batch_normalization_v1_47 (Batc (None, 50, 50, 32)   128         conv2d_30[0][0]                  
__________________________________________________________________________________________________
max_pooling2d_4 (MaxPooling2D)  (None, 25, 25, 32)   0           batch_normalization_v1_47[0][0]  
__________________________________________________________________________________________________
dropout_78 (Dropout)            (None, 25, 25, 32)   0           max_pooling2d_4[0][0]            
__________________________________________________________________________________________________
conv2d_31 (Conv2D)              (None, 13, 13, 64)   18496       dropout_78[0][0]                 
__________________________________________________________________________________________________
batch_normalization_v1_48 (Batc (None, 13, 13, 64)   256         conv2d_31[0][0]                  
__________________________________________________________________________________________________
input_40 (InputLayer)           (None, 20, 22, 1)    0                                            
__________________________________________________________________________________________________
max_pooling2d_5 (MaxPooling2D)  (None, 6, 6, 64)     0           batch_normalization_v1_48[0][0]  
__________________________________________________________________________________________________
conv2d_29 (Conv2D)              (None, 10, 11, 16)   160         input_40[0][0]                   
__________________________________________________________________________________________________
dropout_79 (Dropout)            (None, 6, 6, 64)     0           max_pooling2d_5[0][0]            
__________________________________________________________________________________________________
batch_normalization_v1_45 (Batc (None, 10, 11, 16)   64          conv2d_29[0][0]                  
__________________________________________________________________________________________________
conv2d_32 (Conv2D)              (None, 3, 3, 128)    73856       dropout_79[0][0]                 
__________________________________________________________________________________________________
dropout_75 (Dropout)            (None, 10, 11, 16)   0           batch_normalization_v1_45[0][0]  
__________________________________________________________________________________________________
batch_normalization_v1_49 (Batc (None, 3, 3, 128)    512         conv2d_32[0][0]                  
__________________________________________________________________________________________________
flatten_35 (Flatten)            (None, 1760)         0           dropout_75[0][0]                 
__________________________________________________________________________________________________
dropout_80 (Dropout)            (None, 3, 3, 128)    0           batch_normalization_v1_49[0][0]  
__________________________________________________________________________________________________
dropout_76 (Dropout)            (None, 1760)         0           flatten_35[0][0]                 
__________________________________________________________________________________________________
flatten_36 (Flatten)            (None, 1152)         0           dropout_80[0][0]                 
__________________________________________________________________________________________________
dense_118 (Dense)               (None, 128)          225408      dropout_76[0][0]                 
__________________________________________________________________________________________________
dense_120 (Dense)               (None, 256)          295168      flatten_36[0][0]                 
__________________________________________________________________________________________________
batch_normalization_v1_46 (Batc (None, 128)          512         dense_118[0][0]                  
__________________________________________________________________________________________________
batch_normalization_v1_50 (Batc (None, 256)          1024        dense_120[0][0]                  
__________________________________________________________________________________________________
dropout_77 (Dropout)            (None, 128)          0           batch_normalization_v1_46[0][0]  
__________________________________________________________________________________________________
dropout_81 (Dropout)            (None, 256)          0           batch_normalization_v1_50[0][0]  
__________________________________________________________________________________________________
dense_119 (Dense)               (None, 8)            1032        dropout_77[0][0]                 
__________________________________________________________________________________________________
dense_121 (Dense)               (None, 8)            2056        dropout_81[0][0]                 
__________________________________________________________________________________________________
concatenate_2 (Concatenate)     (None, 16)           0           dense_119[0][0]                  
                                                                 dense_121[0][0]                  
__________________________________________________________________________________________________
dense_122 (Dense)               (None, 8)            136         concatenate_2[0][0]              
==================================================================================================
Total params: 619,128
Trainable params: 617,880
Non-trainable params: 1,248
__________________________________________________________________________________________________
None
Confusion matrix, without normalization
[[1790    1    0    0    0    0    0    0]
…
