…
48636/48636 [==============================] - 12s 238us/sample - loss: 0.1304 - acc: 0.9499 - val_loss: 0.1133 - val_acc: 0.9621
Epoch 49/50
48636/48636 [==============================] - 12s 241us/sample - loss: 0.1321 - acc: 0.9485 - val_loss: 0.1110 - val_acc: 0.9627
Epoch 50/50
48636/48636 [==============================] - 12s 237us/sample - loss: 0.1342 - acc: 0.9486 - val_loss: 0.1181 - val_acc: 0.9603
_________________________________________________________________
Layer (type)                 Output Shape              Param #   
=================================================================
input_29 (InputLayer)        (None, 20, 22, 1)         0         
_________________________________________________________________
conv2d_15 (Conv2D)           (None, 10, 11, 16)        160       
_________________________________________________________________
batch_normalization_v1_21 (B (None, 10, 11, 16)        64        
_________________________________________________________________
dropout_42 (Dropout)         (None, 10, 11, 16)        0         
_________________________________________________________________
flatten_24 (Flatten)         (None, 1760)              0         
_________________________________________________________________
dropout_43 (Dropout)         (None, 1760)              0         
_________________________________________________________________
dense_91 (Dense)             (None, 128)               225408    
_________________________________________________________________
batch_normalization_v1_22 (B (None, 128)               512       
_________________________________________________________________
dropout_44 (Dropout)         (None, 128)               0         
_________________________________________________________________
dense_92 (Dense)             (None, 8)                 1032      
=================================================================
Total params: 227,176
Trainable params: 226,888
Non-trainable params: 288
_________________________________________________________________
None
Confusion matrix, without normalization
[[1634   14    5    0    2    0    0  136]
 [  33 1669    1    0    3    0   13   11]
 [   0    0 1574    9    8    0   31    0]
 [   0    0    1  269    0    0    0    0]
…
