…
48636/48636 [==============================] - 32s 660us/sample - loss: 0.0087 - acc: 0.9977 - val_loss: 0.0231 - val_acc: 0.9942
Epoch 50/50
48636/48636 [==============================] - 33s 687us/sample - loss: 0.0081 - acc: 0.9976 - val_loss: 0.0257 - val_acc: 0.9934
__________________________________________________________________________________________________
Layer (type)                    Output Shape         Param #     Connected to                     
==================================================================================================
input_47 (InputLayer)           (None, 20, 22, 1)    0                                            
__________________________________________________________________________________________________
input_48 (InputLayer)           (None, 20, 22, 1)    0                                            
__________________________________________________________________________________________________
input_49 (InputLayer)           (None, 20, 22, 1)    0                                            
__________________________________________________________________________________________________
input_50 (InputLayer)           (None, 20, 22, 1)    0                                            
__________________________________________________________________________________________________
conv2d_39 (Conv2D)              (None, 10, 11, 16)   160         input_47[0][0]                   
__________________________________________________________________________________________________
conv2d_40 (Conv2D)              (None, 10, 11, 16)   160         input_48[0][0]                   
__________________________________________________________________________________________________
conv2d_41 (Conv2D)              (None, 10, 11, 16)   160         input_49[0][0]                   
__________________________________________________________________________________________________
conv2d_42 (Conv2D)              (None, 10, 11, 16)   160         input_50[0][0]                   
__________________________________________________________________________________________________
batch_normalization_v1_62 (Batc (None, 10, 11, 16)   64          conv2d_39[0][0]                  
__________________________________________________________________________________________________
batch_normalization_v1_64 (Batc (None, 10, 11, 16)   64          conv2d_40[0][0]                  
__________________________________________________________________________________________________
batch_normalization_v1_66 (Batc (None, 10, 11, 16)   64          conv2d_41[0][0]                  
__________________________________________________________________________________________________
batch_normalization_v1_68 (Batc (None, 10, 11, 16)   64          conv2d_42[0][0]                  
__________________________________________________________________________________________________
dropout_98 (Dropout)            (None, 10, 11, 16)   0           batch_normalization_v1_62[0][0]  
__________________________________________________________________________________________________
dropout_101 (Dropout)           (None, 10, 11, 16)   0           batch_normalization_v1_64[0][0]  
__________________________________________________________________________________________________
dropout_104 (Dropout)           (None, 10, 11, 16)   0           batch_normalization_v1_66[0][0]  
__________________________________________________________________________________________________
dropout_107 (Dropout)           (None, 10, 11, 16)   0           batch_normalization_v1_68[0][0]  
__________________________________________________________________________________________________
flatten_42 (Flatten)            (None, 1760)         0           dropout_98[0][0]                 
__________________________________________________________________________________________________
flatten_43 (Flatten)            (None, 1760)         0           dropout_101[0][0]                
__________________________________________________________________________________________________
flatten_44 (Flatten)            (None, 1760)         0           dropout_104[0][0]                
__________________________________________________________________________________________________
flatten_45 (Flatten)            (None, 1760)         0           dropout_107[0][0]                
__________________________________________________________________________________________________
dropout_99 (Dropout)            (None, 1760)         0           flatten_42[0][0]                 
__________________________________________________________________________________________________
dropout_102 (Dropout)           (None, 1760)         0           flatten_43[0][0]                 
__________________________________________________________________________________________________
dropout_105 (Dropout)           (None, 1760)         0           flatten_44[0][0]                 
__________________________________________________________________________________________________
dropout_108 (Dropout)           (None, 1760)         0           flatten_45[0][0]                 
__________________________________________________________________________________________________
dense_134 (Dense)               (None, 128)          225408      dropout_99[0][0]                 
__________________________________________________________________________________________________
dense_136 (Dense)               (None, 128)          225408      dropout_102[0][0]                
__________________________________________________________________________________________________
dense_138 (Dense)               (None, 128)          225408      dropout_105[0][0]                
__________________________________________________________________________________________________
dense_140 (Dense)               (None, 128)          225408      dropout_108[0][0]                
__________________________________________________________________________________________________
batch_normalization_v1_63 (Batc (None, 128)          512         dense_134[0][0]                  
__________________________________________________________________________________________________
batch_normalization_v1_65 (Batc (None, 128)          512         dense_136[0][0]                  
__________________________________________________________________________________________________
batch_normalization_v1_67 (Batc (None, 128)          512         dense_138[0][0]                  
__________________________________________________________________________________________________
batch_normalization_v1_69 (Batc (None, 128)          512         dense_140[0][0]                  
__________________________________________________________________________________________________
dropout_100 (Dropout)           (None, 128)          0           batch_normalization_v1_63[0][0]  
__________________________________________________________________________________________________
dropout_103 (Dropout)           (None, 128)          0           batch_normalization_v1_65[0][0]  
__________________________________________________________________________________________________
dropout_106 (Dropout)           (None, 128)          0           batch_normalization_v1_67[0][0]  
__________________________________________________________________________________________________
dropout_109 (Dropout)           (None, 128)          0           batch_normalization_v1_69[0][0]  
__________________________________________________________________________________________________
dense_135 (Dense)               (None, 8)            1032        dropout_100[0][0]                
__________________________________________________________________________________________________
dense_137 (Dense)               (None, 8)            1032        dropout_103[0][0]                
__________________________________________________________________________________________________
dense_139 (Dense)               (None, 8)            1032        dropout_106[0][0]                
__________________________________________________________________________________________________
dense_141 (Dense)               (None, 8)            1032        dropout_109[0][0]                
__________________________________________________________________________________________________
concatenate_4 (Concatenate)     (None, 32)           0           dense_135[0][0]                  
                                                                 dense_137[0][0]                  
                                                                 dense_139[0][0]                  
                                                                 dense_141[0][0]                  
__________________________________________________________________________________________________
dense_142 (Dense)               (None, 8)            264         concatenate_4[0][0]              
==================================================================================================
Total params: 908,968
Trainable params: 907,816
Non-trainable params: 1,152
__________________________________________________________________________________________________
None
Confusion matrix, without normalization
[[1764    1    4    0    1    0    0   21]
…
