…
Epoch 49/50
48636/48636 [==============================] - 263s 5ms/sample - loss: 0.0086 - acc: 0.9999 - val_loss: 0.0078 - val_acc: 0.9998
Epoch 50/50
48636/48636 [==============================] - 264s 5ms/sample - loss: 0.0085 - acc: 0.9996 - val_loss: 0.0092 - val_acc: 0.9992
__________________________________________________________________________________________________
Layer (type)                    Output Shape         Param #     Connected to                     
==================================================================================================
input_37 (InputLayer)           (None, 100, 100, 1)  0                                            
__________________________________________________________________________________________________
conv2d_22 (Conv2D)              (None, 50, 50, 32)   320         input_37[0][0]                   
__________________________________________________________________________________________________
batch_normalization_v1_35 (Batc (None, 50, 50, 32)   128         conv2d_22[0][0]                  
__________________________________________________________________________________________________
max_pooling2d (MaxPooling2D)    (None, 25, 25, 32)   0           batch_normalization_v1_35[0][0]  
__________________________________________________________________________________________________
dropout_64 (Dropout)            (None, 25, 25, 32)   0           max_pooling2d[0][0]              
__________________________________________________________________________________________________
conv2d_23 (Conv2D)              (None, 13, 13, 64)   18496       dropout_64[0][0]                 
__________________________________________________________________________________________________
batch_normalization_v1_36 (Batc (None, 13, 13, 64)   256         conv2d_23[0][0]                  
__________________________________________________________________________________________________
input_33 (InputLayer)           (None, 20, 22, 1)    0                                            
__________________________________________________________________________________________________
input_34 (InputLayer)           (None, 20, 22, 1)    0                                            
__________________________________________________________________________________________________
input_35 (InputLayer)           (None, 20, 22, 1)    0                                            
__________________________________________________________________________________________________
input_36 (InputLayer)           (None, 20, 22, 1)    0                                            
__________________________________________________________________________________________________
max_pooling2d_1 (MaxPooling2D)  (None, 6, 6, 64)     0           batch_normalization_v1_36[0][0]  
__________________________________________________________________________________________________
conv2d_18 (Conv2D)              (None, 10, 11, 16)   160         input_33[0][0]                   
__________________________________________________________________________________________________
conv2d_19 (Conv2D)              (None, 10, 11, 16)   160         input_34[0][0]                   
__________________________________________________________________________________________________
conv2d_20 (Conv2D)              (None, 10, 11, 16)   160         input_35[0][0]                   
__________________________________________________________________________________________________
conv2d_21 (Conv2D)              (None, 10, 11, 16)   160         input_36[0][0]                   
__________________________________________________________________________________________________
dropout_65 (Dropout)            (None, 6, 6, 64)     0           max_pooling2d_1[0][0]            
__________________________________________________________________________________________________
batch_normalization_v1_27 (Batc (None, 10, 11, 16)   64          conv2d_18[0][0]                  
__________________________________________________________________________________________________
batch_normalization_v1_29 (Batc (None, 10, 11, 16)   64          conv2d_19[0][0]                  
__________________________________________________________________________________________________
batch_normalization_v1_31 (Batc (None, 10, 11, 16)   64          conv2d_20[0][0]                  
__________________________________________________________________________________________________
batch_normalization_v1_33 (Batc (None, 10, 11, 16)   64          conv2d_21[0][0]                  
__________________________________________________________________________________________________
conv2d_24 (Conv2D)              (None, 3, 3, 128)    73856       dropout_65[0][0]                 
__________________________________________________________________________________________________
dropout_52 (Dropout)            (None, 10, 11, 16)   0           batch_normalization_v1_27[0][0]  
__________________________________________________________________________________________________
dropout_55 (Dropout)            (None, 10, 11, 16)   0           batch_normalization_v1_29[0][0]  
__________________________________________________________________________________________________
dropout_58 (Dropout)            (None, 10, 11, 16)   0           batch_normalization_v1_31[0][0]  
__________________________________________________________________________________________________
dropout_61 (Dropout)            (None, 10, 11, 16)   0           batch_normalization_v1_33[0][0]  
__________________________________________________________________________________________________
batch_normalization_v1_37 (Batc (None, 3, 3, 128)    512         conv2d_24[0][0]                  
__________________________________________________________________________________________________
flatten_28 (Flatten)            (None, 1760)         0           dropout_52[0][0]                 
__________________________________________________________________________________________________
flatten_29 (Flatten)            (None, 1760)         0           dropout_55[0][0]                 
__________________________________________________________________________________________________
flatten_30 (Flatten)            (None, 1760)         0           dropout_58[0][0]                 
__________________________________________________________________________________________________
flatten_31 (Flatten)            (None, 1760)         0           dropout_61[0][0]                 
__________________________________________________________________________________________________
dropout_66 (Dropout)            (None, 3, 3, 128)    0           batch_normalization_v1_37[0][0]  
__________________________________________________________________________________________________
dropout_53 (Dropout)            (None, 1760)         0           flatten_28[0][0]                 
__________________________________________________________________________________________________
dropout_56 (Dropout)            (None, 1760)         0           flatten_29[0][0]                 
__________________________________________________________________________________________________
dropout_59 (Dropout)            (None, 1760)         0           flatten_30[0][0]                 
__________________________________________________________________________________________________
dropout_62 (Dropout)            (None, 1760)         0           flatten_31[0][0]                 
__________________________________________________________________________________________________
flatten_32 (Flatten)            (None, 1152)         0           dropout_66[0][0]                 
__________________________________________________________________________________________________
dense_102 (Dense)               (None, 128)          225408      dropout_53[0][0]                 
__________________________________________________________________________________________________
dense_104 (Dense)               (None, 128)          225408      dropout_56[0][0]                 
__________________________________________________________________________________________________
dense_106 (Dense)               (None, 128)          225408      dropout_59[0][0]                 
__________________________________________________________________________________________________
dense_108 (Dense)               (None, 128)          225408      dropout_62[0][0]                 
__________________________________________________________________________________________________
dense_110 (Dense)               (None, 256)          295168      flatten_32[0][0]                 
__________________________________________________________________________________________________
batch_normalization_v1_28 (Batc (None, 128)          512         dense_102[0][0]                  
__________________________________________________________________________________________________
batch_normalization_v1_30 (Batc (None, 128)          512         dense_104[0][0]                  
__________________________________________________________________________________________________
batch_normalization_v1_32 (Batc (None, 128)          512         dense_106[0][0]                  
__________________________________________________________________________________________________
batch_normalization_v1_34 (Batc (None, 128)          512         dense_108[0][0]                  
__________________________________________________________________________________________________
batch_normalization_v1_38 (Batc (None, 256)          1024        dense_110[0][0]                  
__________________________________________________________________________________________________
dropout_54 (Dropout)            (None, 128)          0           batch_normalization_v1_28[0][0]  
__________________________________________________________________________________________________
dropout_57 (Dropout)            (None, 128)          0           batch_normalization_v1_30[0][0]  
__________________________________________________________________________________________________
dropout_60 (Dropout)            (None, 128)          0           batch_normalization_v1_32[0][0]  
__________________________________________________________________________________________________
dropout_63 (Dropout)            (None, 128)          0           batch_normalization_v1_34[0][0]  
__________________________________________________________________________________________________
dropout_67 (Dropout)            (None, 256)          0           batch_normalization_v1_38[0][0]  
__________________________________________________________________________________________________
dense_103 (Dense)               (None, 8)            1032        dropout_54[0][0]                 
__________________________________________________________________________________________________
dense_105 (Dense)               (None, 8)            1032        dropout_57[0][0]                 
__________________________________________________________________________________________________
dense_107 (Dense)               (None, 8)            1032        dropout_60[0][0]                 
__________________________________________________________________________________________________
dense_109 (Dense)               (None, 8)            1032        dropout_63[0][0]                 
__________________________________________________________________________________________________
dense_111 (Dense)               (None, 8)            2056        dropout_67[0][0]                 
__________________________________________________________________________________________________
concatenate (Concatenate)       (None, 40)           0           dense_103[0][0]                  
                                                                 dense_105[0][0]                  
                                                                 dense_107[0][0]                  
                                                                 dense_109[0][0]                  
                                                                 dense_111[0][0]                  
__________________________________________________________________________________________________
dense_112 (Dense)               (None, 8)            328         concatenate[0][0]                
==================================================================================================
Total params: 1,300,848
Trainable params: 1,298,736
Non-trainable params: 2,112
__________________________________________________________________________________________________
None
Confusion matrix, without normalization
[[1791    0    0    0    0    0    0    0]
…
