…
2814/2814 [==============================] - 3s 1ms/sample - loss: 0.1364 - acc: 0.9876 - val_loss: 0.3286 - val_acc: 0.9441
Epoch 49/50
2814/2814 [==============================] - 3s 1ms/sample - loss: 0.1152 - acc: 0.9925 - val_loss: 0.3610 - val_acc: 0.9387
Epoch 50/50
2814/2814 [==============================] - 3s 1ms/sample - loss: 0.1146 - acc: 0.9925 - val_loss: 0.3070 - val_acc: 0.9515
_________________________________________________________________
Layer (type)                 Output Shape              Param #   
=================================================================
input_2 (InputLayer)         (None, 25, 40, 1)         0         
_________________________________________________________________
conv2d_3 (Conv2D)            (None, 13, 20, 32)        320       
_________________________________________________________________
batch_normalization_v1_3 (Ba (None, 13, 20, 32)        128       
_________________________________________________________________
max_pooling2d_2 (MaxPooling2 (None, 6, 10, 32)         0         
_________________________________________________________________
conv2d_4 (Conv2D)            (None, 3, 5, 64)          18496     
_________________________________________________________________
batch_normalization_v1_4 (Ba (None, 3, 5, 64)          256       
_________________________________________________________________
conv2d_5 (Conv2D)            (None, 2, 3, 128)         73856     
_________________________________________________________________
batch_normalization_v1_5 (Ba (None, 2, 3, 128)         512       
_________________________________________________________________
max_pooling2d_3 (MaxPooling2 (None, 1, 1, 128)         0         
_________________________________________________________________
flatten_1 (Flatten)          (None, 128)               0         
_________________________________________________________________
dropout_2 (Dropout)          (None, 128)               0         
_________________________________________________________________
dense_2 (Dense)              (None, 1024)              132096    
_________________________________________________________________
dropout_3 (Dropout)          (None, 1024)              0         
_________________________________________________________________
dense_3 (Dense)              (None, 12)                12300     
=================================================================
Total params: 237,964
Trainable params: 237,516
Non-trainable params: 448
_________________________________________________________________
None
Confusion matrix, without normalization
[[ 39   0   0   0   0   1   0   1   0   0   0   0]
 [  0 173   0   1   0   0   0   0   0   0   2   0]
 [  0   0 159  15   0   0   0   0   0   0   7   0]
…
