…
48636/48636 [==============================] - 23s 474us/sample - loss: 0.0827 - acc: 0.9735 - val_loss: 0.0651 - val_acc: 0.9803
Epoch 49/50
48636/48636 [==============================] - 23s 478us/sample - loss: 0.0818 - acc: 0.9739 - val_loss: 0.0686 - val_acc: 0.9805
Epoch 50/50
48636/48636 [==============================] - 24s 487us/sample - loss: 0.0776 - acc: 0.9759 - val_loss: 0.0676 - val_acc: 0.9798
_________________________________________________________________
Layer (type)                 Output Shape              Param #   
=================================================================
input_20 (InputLayer)        (None, 20, 22, 1)         0         
_________________________________________________________________
conv2d_2 (Conv2D)            (None, 10, 11, 32)        320       
_________________________________________________________________
batch_normalization_v1_3 (Ba (None, 10, 11, 32)        128       
_________________________________________________________________
dropout_18 (Dropout)         (None, 10, 11, 32)        0         
_________________________________________________________________
conv2d_3 (Conv2D)            (None, 5, 6, 32)          9248      
_________________________________________________________________
batch_normalization_v1_4 (Ba (None, 5, 6, 32)          128       
_________________________________________________________________
dropout_19 (Dropout)         (None, 5, 6, 32)          0         
_________________________________________________________________
flatten_18 (Flatten)         (None, 960)               0         
_________________________________________________________________
dropout_20 (Dropout)         (None, 960)               0         
_________________________________________________________________
dense_75 (Dense)             (None, 128)               123008    
_________________________________________________________________
batch_normalization_v1_5 (Ba (None, 128)               512       
_________________________________________________________________
dropout_21 (Dropout)         (None, 128)               0         
_________________________________________________________________
dense_76 (Dense)             (None, 8)                 1032      
=================================================================
Total params: 134,376
Trainable params: 133,992
Non-trainable params: 384
_________________________________________________________________
None
Confusion matrix, without normalization
[[1747   14    1    0    5    0    0   24]
 [  10 1712    3    0    0    0    4    1]
 [   1    1 1607    6    4    0    3    0]
 [   0    0    3  267    0    0    0    0]
…
