…
48636/48636 [==============================] - 6s 126us/sample - loss: 0.0862 - acc: 0.9691 - val_loss: 0.0828 - val_acc: 0.9726
Epoch 49/50
48636/48636 [==============================] - 6s 125us/sample - loss: 0.0775 - acc: 0.9709 - val_loss: 0.0771 - val_acc: 0.9750
Epoch 50/50
48636/48636 [==============================] - 6s 126us/sample - loss: 0.0826 - acc: 0.9697 - val_loss: 0.0907 - val_acc: 0.9710
_________________________________________________________________
Layer (type)                 Output Shape              Param #   
=================================================================
input_18 (InputLayer)        (None, 20, 22)            0         
_________________________________________________________________
flatten_16 (Flatten)         (None, 440)               0         
_________________________________________________________________
dense_68 (Dense)             (None, 128)               56448     
_________________________________________________________________
dense_69 (Dense)             (None, 256)               33024     
_________________________________________________________________
dense_70 (Dense)             (None, 256)               65792     
_________________________________________________________________
dropout_13 (Dropout)         (None, 256)               0         
_________________________________________________________________
dense_71 (Dense)             (None, 512)               131584    
_________________________________________________________________
dense_72 (Dense)             (None, 8)                 4104      
=================================================================
Total params: 290,952
Trainable params: 290,952
Non-trainable params: 0
_________________________________________________________________
None
Confusion matrix, without normalization
[[1693   25   12    0    3    0    0   58]
 [  13 1702    2    0    0    0   12    1]
 [  34    7 1537    4    5    0   31    4]
 [   0    0    2  268    0    0    0    0]
…
