…
11501/11501 [==============================] - 10s 840us/sample - loss: 0.6507 - acc: 0.8348 - val_loss: 0.7018 - val_acc: 0.8293
Epoch 199/200
11501/11501 [==============================] - 10s 832us/sample - loss: 0.6636 - acc: 0.8293 - val_loss: 0.6476 - val_acc: 0.8359
Epoch 200/200
11501/11501 [==============================] - 10s 835us/sample - loss: 0.6608 - acc: 0.8302 - val_loss: 0.6399 - val_acc: 0.8310
_________________________________________________________________
Layer (type)                 Output Shape              Param #   
=================================================================
input_18 (InputLayer)        (None, 20, 23, 1)         0         
_________________________________________________________________
conv2d_56 (Conv2D)           (None, 10, 12, 32)        320       
_________________________________________________________________
batch_normalization_v1_56 (B (None, 10, 12, 32)        128       
_________________________________________________________________
max_pooling2d_15 (MaxPooling (None, 5, 6, 32)          0         
_________________________________________________________________
dropout_30 (Dropout)         (None, 5, 6, 32)          0         
_________________________________________________________________
conv2d_57 (Conv2D)           (None, 3, 3, 64)          18496     
_________________________________________________________________
batch_normalization_v1_57 (B (None, 3, 3, 64)          256       
_________________________________________________________________
dropout_31 (Dropout)         (None, 3, 3, 64)          0         
_________________________________________________________________
conv2d_58 (Conv2D)           (None, 2, 2, 256)         147712    
_________________________________________________________________
batch_normalization_v1_58 (B (None, 2, 2, 256)         1024      
_________________________________________________________________
max_pooling2d_16 (MaxPooling (None, 1, 1, 256)         0         
_________________________________________________________________
conv2d_59 (Conv2D)           (None, 1, 1, 128)         295040    
_________________________________________________________________
batch_normalization_v1_59 (B (None, 1, 1, 128)         512       
_________________________________________________________________
flatten_14 (Flatten)         (None, 128)               0         
_________________________________________________________________
dropout_32 (Dropout)         (None, 128)               0         
_________________________________________________________________
dense_34 (Dense)             (None, 1024)              132096    
_________________________________________________________________
dropout_33 (Dropout)         (None, 1024)              0         
_________________________________________________________________
dense_35 (Dense)             (None, 20)                20500     
=================================================================
Total params: 616,084
Trainable params: 615,124
Non-trainable params: 960
_________________________________________________________________
None
Confusion matrix, without normalization
[[   8    0    0    1    1    0    0    0    0    0    0    0    0    0
     0    0    0    0    0    0]
 [   1   15    0    1    2    0    0    0    0    0    0    0    0    0
…
